…
    \ ... 255 255 255]\n  [255 255 255 ... 255 255 255]\n  ...\n  [255 255 255 ...\
    \ 255 255 255]\n  [255 255 255 ... 255 255 255]\n  [255 255 255 ... 255 255 255]]\n\
    \n [[255 255 255 ... 255 255 255]\n  [255 255 255 ... 255 255 255]\n  [255 255\
    \ 255 ... 255 255 255]\n  ...\n  [255 255 255 ... 255 255 255]\n  [255 255 255\
    \ ... 255 255 255]\n  [255 255 255 ... 255 255 255]]], (4, 84, 84), uint8)"
optimize_memory_usage:
  desc: null
  value: 'False'
policy:
  desc: null
  value: "CnnPolicy(\n  (q_net): QNetwork(\n    (features_extractor): NatureCNN(\n\
    \      (cnn): Sequential(\n        (0): Conv2d(4, 32, kernel_size=(8, 8), stride=(4,\
    \ 4))\n        (1): ReLU()\n        (2): Conv2d(32, 64, kernel_size=(4, 4), stride=(2,\
    \ 2))\n        (3): ReLU()\n        (4): Conv2d(64, 64, kernel_size=(3, 3), stride=(1,\
    \ 1))\n        (5): ReLU()\n        (6): Flatten(start_dim=1, end_dim=-1)\n  \
    \    )\n      (linear): Sequential(\n        (0): Linear(in_features=3136, out_features=512,\
    \ bias=True)\n        (1): ReLU()\n      )\n    )\n    (q_net): Sequential(\n\
    \      (0): Linear(in_features=512, out_features=3, bias=True)\n    )\n  )\n \
    \ (q_net_target): QNetwork(\n    (features_extractor): NatureCNN(\n      (cnn):\
    \ Sequential(\n        (0): Conv2d(4, 32, kernel_size=(8, 8), stride=(4, 4))\n\
    \        (1): ReLU()\n        (2): Conv2d(32, 64, kernel_size=(4, 4), stride=(2,\
    \ 2))\n        (3): ReLU()\n        (4): Conv2d(64, 64, kernel_size=(3, 3), stride=(1,\
    \ 1))\n        (5): ReLU()\n        (6): Flatten(start_dim=1, end_dim=-1)\n  \
    \    )\n      (linear): Sequential(\n        (0): Linear(in_features=3136, out_features=512,\
    \ bias=True)\n        (1): ReLU()\n      )\n    )\n    (q_net): Sequential(\n\
    \      (0): Linear(in_features=512, out_features=3, bias=True)\n    )\n  )\n)"
policy_class:
  desc: null
  value: <class 'stable_baselines3.dqn.policies.CnnPolicy'>
policy_kwargs:
  desc: null
  value: '{}'
policy_type:
  desc: null
  value: CnnPolicy
q_net:
  desc: null
  value: "QNetwork(\n  (features_extractor): NatureCNN(\n    (cnn): Sequential(\n\
    \      (0): Conv2d(4, 32, kernel_size=(8, 8), stride=(4, 4))\n      (1): ReLU()\n\
    \      (2): Conv2d(32, 64, kernel_size=(4, 4), stride=(2, 2))\n      (3): ReLU()\n\
    \      (4): Conv2d(64, 64, kernel_size=(3, 3), stride=(1, 1))\n      (5): ReLU()\n\
    \      (6): Flatten(start_dim=1, end_dim=-1)\n    )\n    (linear): Sequential(\n\
    \      (0): Linear(in_features=3136, out_features=512, bias=True)\n      (1):\
    \ ReLU()\n    )\n  )\n  (q_net): Sequential(\n    (0): Linear(in_features=512,\
    \ out_features=3, bias=True)\n  )\n)"
q_net_target:
  desc: null
  value: "QNetwork(\n  (features_extractor): NatureCNN(\n    (cnn): Sequential(\n\
    \      (0): Conv2d(4, 32, kernel_size=(8, 8), stride=(4, 4))\n      (1): ReLU()\n\
    \      (2): Conv2d(32, 64, kernel_size=(4, 4), stride=(2, 2))\n      (3): ReLU()\n\
    \      (4): Conv2d(64, 64, kernel_size=(3, 3), stride=(1, 1))\n      (5): ReLU()\n\
    \      (6): Flatten(start_dim=1, end_dim=-1)\n    )\n    (linear): Sequential(\n\
    \      (0): Linear(in_features=3136, out_features=512, bias=True)\n      (1):\
    \ ReLU()\n    )\n  )\n  (q_net): Sequential(\n    (0): Linear(in_features=512,\
    \ out_features=3, bias=True)\n  )\n)"
remove_time_limit_termination:
  desc: null
  value: 'False'
replay_buffer:
  desc: null
  value: <stable_baselines3.common.buffers.ReplayBuffer object at 0x7f5ac411ce50>
replay_buffer_class:
  desc: null
  value: <class 'stable_baselines3.common.buffers.ReplayBuffer'>
replay_buffer_kwargs:
  desc: null
  value: '{}'
sde_sample_freq:
  desc: null
…
